…
ion as much as possible. Tiling Parameters \u00b6 Parameter Value m 6144 k 4608 n 6144 batch 4 cin 32 hin 16 win 96 c0 16 hk 3 wk 3 strideH 1 strideW 1 dilationH 1 dilationW 1 padTop 1 padBottom 1 padLeft 1 padRight 1 singleCoreM 1536 singleCoreK 4608 singleCoreN 1024 baseM 128 baseK 48 baseN 256 stepM 1 stepKa 3 stepKb 3 stepN 1 Measured Performance (Reference) \u00b6 The following data was measured on Ascend A3 (24 cores), covering multiple input/output matrix sizes (fp16 input \u2192 fp32 output). Parameters TMATMUL (Cube) % TLOAD % TEXTRACT % TSTORE % Execution Time (ms) X=[4,8,8,48,16] K=[72,96,16,16] 52.90% 43.90% 59.4% 5.60% 0.0322 X=[4,16,12,64,16] K=[144,192,16,16] 86.1% 75.1% 57.3% 4% 0.1473 X=[4,24,12,96,16] K=[216,288,16,16] 89.3% 78.8% 61.6% 2.8% 0.4709 X=[4,32,16,96,16] K=[288,384,16,16] 90.8% 80.4% 61.1% 2.1% 1.0979 X=[4,40,15,128,16] K=[360,480,16,16] 91.3% 80.7% 62.4% 1.7% 2.1312 For the meaning of the parameters in the table and performance optimization schemes, please refer to gemm_performance Measured Performance . Build and Run \u00b6 Configure the Ascend CANN environment: source ${ASCEND_INSTALL_PATH}/bin/setenv.bash Generate input + golden output: cd ${git_clone_path}/kernels/manual/a2a3/conv2d_forward python3 scripts/gen_data.py Run the e
…
